src/compressed_tensors/transform/utils/hadamards.safetensors (safetensors, 169453 bytes, 31 tensors)

100 i1 [100, 100]
0	0x01	1
1	0xff	-1
2	0x01	1
3	0x01	1
4	0x01	1
5	0x01	1
6	0xff	-1
7	0xff	-1
8	0xff	-1
9	0xff	-1
10	0x01	1
11	0x01	1
12	0xff	-1
13	0xff	-1
14	0x01	1
15	0x01	1
16	0xff	-1
17	0xff	-1
18	0xff	-1
19	0xff	-1
20	0x01	1
21	0x01	1
22	0x01	1
23	0x01	1
24	0xff	-1
25	0x01	1
26	0x01	1
27	0x01	1
28	0xff	-1
29	0x01	1
30	0x01	1
31	0x01	1
32	0xff	-1
33	0xff	-1
34	0xff	-1
35	0x01	1
36	0xff	-1
37	0x01	1
38	0x01	1
39	0xff	-1
40	0x01	1
41	0xff	-1
42	0xff	-1
43	0xff	-1
44	0x01	1
45	0x01	1
46	0x01	1
47	0xff	-1
48	0x01	1
49	0x01	1
50	0x01	1
51	0xff	-1
52	0x01	1
53	0x01	1
54	0xff	-1
55	0x01	1
56	0x01	1
57	0x01	1
58	0xff	-1
59	0x01	1
60	0x01	1
61	0xff	-1
62	0xff	-1
63	0xff	-1
64	0xff	-1
65	0x01	1
66	0x01	1
67	0xff	-1
68	0x01	1
69	0x01	1
70	0x01	1
71	0xff	-1
72	0x01	1
73	0x01	1
74	0xff	-1
75	0x01	1
76	0xff	-1
77	0xff	-1
78	0x01	1
79	0x01	1
80	0xff	-1
81	0x01	1
82	0xff	-1
83	0x01	1
84	0xff	-1
85	0xff	-1
86	0xff	-1
87	0xff	-1
88	0xff	-1
89	0xff	-1
90	0xff	-1
91	0xff	-1
92	0x01	1
93	0xff	-1
94	0x01	1
95	0xff	-1
96	0x01	1
97	0x01	1
98	0xff	-1
99	0xff	-1
100	0xff	-1
101	0x01	1
102	0xff	-1
103	0x01	1
104	0x01	1
105	0x01	1
106	0x01	1
107	0xff	-1
108	0xff	-1
109	0xff	-1
110	0xff	-1
111	0x01	1
112	0x01	1
113	0xff	-1
114	0xff	-1
115	0x01	1
116	0x01	1
117	0xff	-1
118	0xff	-1
119	0xff	-1
120	0xff	-1
121	0x01	1
122	0x01	1
123	0x01	1
124	0x01	1
125	0x01	1
126	0x01	1
127	0x01	1
128	0x01	1
129	0xff	-1
130	0x01	1
131	0x01	1
132	0x01	1
133	0xff	-1
134	0xff	-1
135	0xff	-1
136	0x01	1
137	0xff	-1
138	0x01	1
139	0x01	1
140	0xff	-1
141	0x01	1
142	0xff	-1
143	0xff	-1
144	0xff	-1
145	0x01	1
146	0x01	1
147	0x01	1
148	0xff	-1
149	0x01	1
150	0xff	-1
151	0x01	1
152	0xff	-1
153	0x01	1
154	0x01	1
155	0xff	-1
156	0x01	1
157	0x01	1
158	0x01	1
159	0xff	-1
160	0x01	1
161	0x01	1
162	0xff	-1
163	0xff	-1
164	0xff	-1
165	0xff	-1
166	0x01	1
167	0x01	1
168	0xff	-1
169	0x01	1
170	0x01	1
171	0x01	1
172	0xff	-1
173	0x01	1
174	0x01	1
175	0xff	-1
176	0x01	1
177	0xff	-1
178	0xff	-1
179	0x01	1
180	0x01	1
181	0xff	-1
182	0x01	1
183	0xff	-1
184	0x01	1
185	0xff	-1
186	0xff	-1
187	0xff	-1
188	0xff	-1
189	0xff	-1
190	0xff	-1
191	0xff	-1
192	0xff	-1
193	0x01	1
194	0xff	-1
195	0x01	1
196	0xff	-1
197	0x01	1
198	0x01	1
199	0xff	-1
200	0x01	1
201	0xff	-1
202	0x01	1
203	0xff	-1
204	0x01	1
205	0x01	1
206	0x01	1
207	0x01	1
208	0xff	-1
209	0xff	-1
210	0xff	-1
211	0xff	-1
212	0x01	1
213	0x01	1
214	0xff	-1
215	0xff	-1
216	0x01	1
217	0x01	1
218	0xff	-1
219	0xff	-1
220	0xff	-1
221	0xff	-1
222	0x01	1
223	0x01	1
224	0x01	1
225	0x01	1
226	0x01	1
227	0x01	1
228	0x01	1
229	0x01	1
230	0xff	-1
231	0x01	1
232	0x01	1
233	0x01	1
234	0xff	-1
235	0xff	-1
236	0xff	-1
237	0x01	1
238	0xff	-1
239	0x01	1
240	0x01	1
241	0xff	-1
242	0x01	1
243	0xff	-1
244	0xff	-1
245	0xff	-1
246	0x01	1
247	0x01	1
248	0x01	1
249	0xff	-1
250	0x01	1
251	0xff	-1
252	0x01	1
253	0xff	-1
254	0x01	1
255	0x01	1

104 i1 [104, 104]
0	0x01	1
1	0xff	-1
2	0xff	-1
3	0xff	-1
4	0xff	-1
5	0xff	-1
6	0xff	-1
7	0xff	-1
8	0xff	-1
9	0xff	-1
10	0xff	-1
11	0xff	-1
12	0xff	-1
13	0xff	-1
14	0xff	-1
15	0xff	-1
16	0xff	-1
17	0xff	-1
18	0xff	-1
19	0xff	-1
20	0xff	-1
21	0xff	-1
22	0xff	-1
23	0xff	-1
24	0xff	-1
25	0xff	-1
26	0xff	-1
27	0xff	-1
28	0xff	-1
29	0xff	-1
30	0xff	-1
31	0xff	-1
32	0xff	-1
33	0xff	-1
34	0xff	-1
35	0xff	-1
36	0xff	-1
37	0xff	-1
38	0xff	-1
39	0xff	-1
40	0xff	-1
41	0xff	-1
42	0xff	-1
43	0xff	-1
44	0xff	-1
45	0xff	-1
46	0xff	-1
47	0xff	-1
48	0xff	-1
49	0xff	-1
50	0xff	-1
51	0xff	-1
52	0xff	-1
53	0xff	-1
54	0xff	-1
55	0xff	-1
56	0xff	-1
57	0xff	-1
58	0xff	-1
59	0xff	-1
60	0xff	-1
61	0xff	-1
62	0xff	-1
63	0xff	-1
64	0xff	-1
65	0xff	-1
66	0xff	-1
67	0xff	-1
68	0xff	-1
69	0xff	-1
70	0xff	-1
71	0xff	-1
72	0xff	-1
73	0xff	-1
74	0xff	-1
75	0xff	-1
76	0xff	-1
77	0xff	-1
78	0xff	-1
79	0xff	-1
80	0xff	-1
81	0xff	-1
82	0xff	-1
83	0xff	-1
84	0xff	-1
85	0xff	-1
86	0xff	-1
87	0xff	-1
88	0xff	-1
89	0xff	-1
90	0xff	-1
91	0xff	-1
92	0xff	-1
93	0xff	-1
94	0xff	-1
95	0xff	-1
96	0xff	-1
97	0xff	-1
98	0xff	-1
99	0xff	-1
100	0xff	-1
101	0xff	-1
102	0xff	-1
103	0xff	-1
104	0x01	1
105	0x01	1
106	0xff	-1
107	0xff	-1
108	0x01	1
109	0xff	-1
110	0x01	1
111	0x01	1
112	0xff	-1
113	0xff	-1
114	0xff	-1
115	0x01	1
116	0x01	1
117	0x01	1
118	0xff	-1
119	0xff	-1
120	0xff	-1
121	0xff	-1
122	0xff	-1
123	0xff	-1
124	0xff	-1
125	0x01	1
126	0x01	1
127	0x01	1
128	0xff	-1
129	0x01	1
130	0xff	-1
131	0xff	-1
132	0x01	1
133	0xff	-1
134	0xff	-1
135	0xff	-1
136	0x01	1
137	0xff	-1
138	0xff	-1
139	0xff	-1
140	0x01	1
141	0xff	-1
142	0x01	1
143	0xff	-1
144	0x01	1
145	0x01	1
146	0xff	-1
147	0x01	1
148	0x01	1
149	0x01	1
150	0x01	1
151	0xff	-1
152	0x01	1
153	0x01	1
154	0xff	-1
155	0xff	-1
156	0x01	1
157	0xff	-1
158	0x01	1
159	0x01	1
160	0xff	-1
161	0xff	-1
162	0x01	1
163	0xff	-1
164	0xff	-1
165	0xff	-1
166	0xff	-1
167	0x01	1
168	0xff	-1
169	0xff	-1
170	0x01	1
171	0xff	-1
172	0x01	1
173	0xff	-1
174	0x01	1
175	0x01	1
176	0x01	1
177	0xff	-1
178	0x01	1
179	0x01	1
180	0x01	1
181	0xff	-1
182	0x01	1
183	0x01	1
184	0xff	-1
185	0x01	1
186	0xff	-1
187	0xff	-1
188	0xff	-1
189	0x01	1
190	0x01	1
191	0x01	1
192	0x01	1
193	0x01	1
194	0x01	1
195	0x01	1
196	0xff	-1
197	0xff	-1
198	0xff	-1
199	0x01	1
200	0x01	1
201	0x01	1
202	0xff	-1
203	0xff	-1
204	0x01	1
205	0xff	-1
206	0x01	1
207	0x01	1
208	0x01	1
209	0x01	1
210	0x01	1
211	0xff	-1
212	0xff	-1
213	0x01	1
214	0xff	-1
215	0x01	1
216	0x01	1
217	0xff	-1
218	0xff	-1
219	0xff	-1
220	0x01	1
221	0x01	1
222	0x01	1
223	0xff	-1
224	0xff	-1
225	0xff	-1
226	0xff	-1
227	0xff	-1
228	0xff	-1
229	0xff	-1
230	0x01	1
231	0x01	1
232	0x01	1
233	0xff	-1
234	0x01	1
235	0xff	-1
236	0xff	-1
237	0x01	1
238	0xff	-1
239	0xff	-1
240	0xff	-1
241	0x01	1
242	0xff	-1
243	0xff	-1
244	0xff	-1
245	0x01	1
246	0xff	-1
247	0x01	1
248	0xff	-1
249	0x01	1
250	0x01	1
251	0xff	-1
252	0x01	1
253	0x01	1
254	0x01	1
255	0x01	1

108 i1 [108, 108]
0	0x01	1
1	0xff	-1
2	0xff	-1
3	0xff	-1
4	0xff	-1
5	0xff	-1
6	0xff	-1
7	0xff	-1
8	0xff	-1
9	0xff	-1
10	0xff	-1
11	0xff	-1
12	0xff	-1
13	0xff	-1
14	0xff	-1
15	0xff	-1
16	0xff	-1
17	0xff	-1
18	0xff	-1
19	0xff	-1
20	0xff	-1
21	0xff	-1
22	0xff	-1
23	0xff	-1
24	0xff	-1
25	0xff	-1
26	0xff	-1
27	0xff	-1
28	0xff	-1
29	0xff	-1
30	0xff	-1
31	0xff	-1
32	0xff	-1
33	0xff	-1
34	0xff	-1
35	0xff	-1
36	0xff	-1
37	0xff	-1
38	0xff	-1
39	0xff	-1
40	0xff	-1
41	0xff	-1
42	0xff	-1
43	0xff	-1
44	0xff	-1
45	0xff	-1
46	0xff	-1
47	0xff	-1
48	0xff	-1
49	0xff	-1
50	0xff	-1
51	0xff	-1
52	0xff	-1
53	0xff	-1
54	0xff	-1
55	0xff	-1
56	0xff	-1
57	0xff	-1
58	0xff	-1
59	0xff	-1
60	0xff	-1
61	0xff	-1
62	0xff	-1
63	0xff	-1
64	0xff	-1
65	0xff	-1
66	0xff	-1
67	0xff	-1
68	0xff	-1
69	0xff	-1
70	0xff	-1
71	0xff	-1
72	0xff	-1
73	0xff	-1
74	0xff	-1
75	0xff	-1
76	0xff	-1
77	0xff	-1
78	0xff	-1
79	0xff	-1
80	0xff	-1
81	0xff	-1
82	0xff	-1
83	0xff	-1
84	0xff	-1
85	0xff	-1
86	0xff	-1
87	0xff	-1
88	0xff	-1
89	0xff	-1
90	0xff	-1
91	0xff	-1
92	0xff	-1
93	0xff	-1
94	0xff	-1
95	0xff	-1
96	0xff	-1
97	0xff	-1
98	0xff	-1
99	0xff	-1
100	0xff	-1
101	0xff	-1
102	0xff	-1
103	0xff	-1
104	0xff	-1
105	0xff	-1
106	0xff	-1
107	0xff	-1
108	0x01	1
109	0x01	1
110	0xff	-1
111	0x01	1
112	0xff	-1
113	0xff	-1
114	0x01	1
115	0x01	1
116	0x01	1
117	0x01	1
118	0xff	-1
119	0xff	-1
120	0xff	-1
121	0xff	-1
122	0xff	-1
123	0xff	-1
124	0x01	1
125	0xff	-1
126	0x01	1
127	0x01	1
128	0xff	-1
129	0x01	1
130	0x01	1
131	0x01	1
132	0xff	-1
133	0x01	1
134	0xff	-1
135	0x01	1
136	0xff	-1
137	0x01	1
138	0xff	-1
139	0xff	-1
140	0x01	1
141	0x01	1
142	0xff	-1
143	0xff	-1
144	0xff	-1
145	0xff	-1
146	0xff	-1
147	0x01	1
148	0xff	-1
149	0xff	-1
150	0xff	-1
151	0xff	-1
152	0x01	1
153	0xff	-1
154	0x01	1
155	0x01	1
156	0xff	-1
157	0xff	-1
158	0xff	-1
159	0x01	1
160	0x01	1
161	0xff	-1
162	0xff	-1
163	0x01	1
164	0x01	1
165	0xff	-1
166	0xff	-1
167	0x01	1
168	0x01	1
169	0x01	1
170	0xff	-1
171	0xff	-1
172	0x01	1
173	0xff	-1
174	0x01	1
175	0x01	1
176	0x01	1
177	0x01	1
178	0xff	-1
179	0x01	1
180	0x01	1
181	0x01	1
182	0x01	1
183	0x01	1
184	0xff	-1
185	0xff	-1
186	0x01	1
187	0x01	1
188	0xff	-1
189	0x01	1
190	0xff	-1
191	0x01	1
192	0xff	-1
193	0x01	1
194	0xff	-1
195	0xff	-1
196	0xff	-1
197	0x01	1
198	0xff	-1
199	0xff	-1
200	0x01	1
201	0xff	-1
202	0x01	1
203	0x01	1
204	0x01	1
205	0x01	1
206	0x01	1
207	0x01	1
208	0xff	-1
209	0xff	-1
210	0xff	-1
211	0xff	-1
212	0x01	1
213	0x01	1
214	0xff	-1
215	0x01	1
216	0x01	1
217	0x01	1
218	0x01	1
219	0xff	-1
220	0x01	1
221	0xff	-1
222	0xff	-1
223	0x01	1
224	0x01	1
225	0x01	1
226	0x01	1
227	0xff	-1
228	0xff	-1
229	0xff	-1
230	0xff	-1
231	0xff	-1
232	0xff	-1
233	0x01	1
234	0xff	-1
235	0x01	1
236	0x01	1
237	0xff	-1
238	0x01	1
239	0x01	1
240	0x01	1
241	0xff	-1
242	0x01	1
243	0xff	-1
244	0x01	1
245	0xff	-1
246	0x01	1
247	0xff	-1
248	0xff	-1
249	0x01	1
250	0x01	1
251	0xff	-1
252	0xff	-1
253	0xff	-1
254	0xff	-1
255	0xff	-1

112 i1 [112, 112]
0	0x01	1
1	0x01	1
2	0x01	1
3	0x01	1
4	0x01	1
5	0x01	1
6	0x01	1
7	0x01	1
8	0x01	1
9	0x01	1
10	0x01	1
11	0x01	1
12	0x01	1
13	0x01	1
14	0xff	-1
15	0x01	1
16	0x01	1
17	0x01	1
18	0x01	1
19	0x01	1
20	0x01	1
21	0x01	1
22	0x01	1
23	0x01	1
24	0x01	1
25	0x01	1
26	0x01	1
27	0x01	1
28	0x01	1
29	0x01	1
30	0x01	1
31	0x01	1
32	0x01	1
33	0x01	1
34	0x01	1
35	0x01	1
36	0x01	1
37	0x01	1
38	0x01	1
39	0x01	1
40	0x01	1
41	0x01	1
42	0xff	-1
43	0x01	1
44	0x01	1
45	0x01	1
46	0x01	1
47	0x01	1
48	0x01	1
49	0x01	1
50	0x01	1
51	0x01	1
52	0x01	1
53	0x01	1
54	0x01	1
55	0x01	1
56	0x01	1
57	0x01	1
58	0x01	1
59	0x01	1
60	0x01	1
61	0x01	1
62	0x01	1
63	0x01	1
64	0x01	1
65	0x01	1
66	0x01	1
67	0x01	1
68	0x01	1
69	0x01	1
70	0xff	-1
71	0x01	1
72	0x01	1
73	0x01	1
74	0x01	1
75	0x01	1
76	0x01	1
77	0x01	1
78	0x01	1
79	0x01	1
80	0x01	1
81	0x01	1
82	0x01	1
83	0x01	1
84	0x01	1
85	0x01	1
86	0x01	1
87	0x01	1
88	0x01	1
89	0x01	1
90	0x01	1
91	0x01	1
92	0x01	1
93	0x01	1
94	0x01	1
95	0x01	1
96	0x01	1
97	0x01	1
98	0xff	-1
99	0x01	1
100	0x01	1
101	0x01	1
102	0x01	1
103	0x01	1
104	0x01	1
105	0x01	1
106	0x01	1
107	0x01	1
108	0x01	1
109	0x01	1
110	0x01	1
111	0x01	1
112	0x01	1
113	0x01	1
114	0x01	1
115	0xff	-1
116	0x01	1
117	0x01	1
118	0xff	-1
119	0xff	-1
120	0xff	-1
121	0xff	-1
122	0x01	1
123	0x01	1
124	0xff	-1
125	0x01	1
126	0x01	1
127	0xff	-1
128	0x01	1
129	0xff	-1
130	0x01	1
131	0x01	1
132	0xff	-1
133	0xff	-1
134	0xff	-1
135	0xff	-1
136	0x01	1
137	0x01	1
138	0xff	-1
139	0x01	1
140	0x01	1
141	0x01	1
142	0x01	1
143	0xff	-1
144	0x01	1
145	0x01	1
146	0xff	-1
147	0xff	-1
148	0xff	-1
149	0xff	-1
150	0x01	1
151	0x01	1
152	0xff	-1
153	0x01	1
154	0x01	1
155	0xff	-1
156	0x01	1
157	0xff	-1
158	0x01	1
159	0x01	1
160	0xff	-1
161	0xff	-1
162	0xff	-1
163	0xff	-1
164	0x01	1
165	0x01	1
166	0xff	-1
167	0x01	1
168	0x01	1
169	0x01	1
170	0x01	1
171	0xff	-1
172	0x01	1
173	0x01	1
174	0xff	-1
175	0xff	-1
176	0xff	-1
177	0xff	-1
178	0x01	1
179	0x01	1
180	0xff	-1
181	0x01	1
182	0x01	1
183	0xff	-1
184	0x01	1
185	0xff	-1
186	0x01	1
187	0x01	1
188	0xff	-1
189	0xff	-1
190	0xff	-1
191	0xff	-1
192	0x01	1
193	0x01	1
194	0xff	-1
195	0x01	1
196	0x01	1
197	0x01	1
198	0x01	1
199	0xff	-1
200	0x01	1
201	0x01	1
202	0xff	-1
203	0xff	-1
204	0xff	-1
205	0xff	-1
206	0x01	1
207	0x01	1
208	0xff	-1
209	0x01	1
210	0x01	1
211	0xff	-1
212	0x01	1
213	0xff	-1
214	0x01	1
215	0x01	1
216	0xff	-1
217	0xff	-1
218	0xff	-1
219	0xff	-1
220	0x01	1
221	0x01	1
222	0xff	-1
223	0x01	1
224	0x01	1
225	0x01	1
226	0x01	1
227	0x01	1
228	0xff	-1
229	0x01	1
230	0x01	1
231	0xff	-1
232	0xff	-1
233	0xff	-1
234	0xff	-1
235	0x01	1
236	0x01	1
237	0xff	-1
238	0x01	1
239	0x01	1
240	0xff	-1
241	0x01	1
242	0xff	-1
243	0x01	1
244	0x01	1
245	0xff	-1
246	0xff	-1
247	0xff	-1
248	0xff	-1
249	0x01	1
250	0x01	1
251	0xff	-1
252	0x01	1
253	0x01	1
254	0x01	1
255	0x01	1

116 i1 [116, 116]
0	0x01	1
1	0x01	1
2	0xff	-1
3	0xff	-1
4	0x01	1
5	0xff	-1
6	0xff	-1
7	0x01	1
8	0xff	-1
9	0x01	1
10	0x01	1
11	0x01	1
12	0xff	-1
13	0x01	1
14	0x01	1
15	0x01	1
16	0x01	1
17	0xff	-1
18	0x01	1
19	0x01	1
20	0x01	1
21	0xff	-1
22	0x01	1
23	0xff	-1
24	0xff	-1
25	0x01	1
26	0xff	-1
27	0xff	-1
28	0x01	1
29	0x01	1
30	0x01	1
31	0x01	1
32	0x01	1
33	0xff	-1
34	0x01	1
35	0x01	1
36	0xff	-1
37	0x01	1
38	0xff	-1
39	0xff	-1
40	0xff	-1
41	0x01	1
42	0x01	1
43	0x01	1
44	0x01	1
45	0x01	1
46	0x01	1
47	0xff	-1
48	0xff	-1
49	0xff	-1
50	0x01	1
51	0xff	-1
52	0x01	1
53	0x01	1
54	0xff	-1
55	0x01	1
56	0x01	1
57	0x01	1
58	0x01	1
59	0xff	-1
60	0x01	1
61	0xff	-1
62	0xff	-1
63	0xff	-1
64	0x01	1
65	0x01	1
66	0xff	-1
67	0xff	-1
68	0x01	1
69	0xff	-1
70	0x01	1
71	0x01	1
72	0x01	1
73	0x01	1
74	0x01	1
75	0x01	1
76	0xff	-1
77	0x01	1
78	0xff	-1
79	0xff	-1
80	0x01	1
81	0x01	1
82	0xff	-1
83	0xff	-1
84	0xff	-1
85	0x01	1
86	0xff	-1
87	0x01	1
88	0x01	1
89	0x01	1
90	0xff	-1
91	0xff	-1
92	0xff	-1
93	0x01	1
94	0x01	1
95	0xff	-1
96	0xff	-1
97	0x01	1
98	0xff	-1
99	0x01	1
100	0xff	-1
101	0xff	-1
102	0xff	-1
103	0xff	-1
104	0x01	1
105	0xff	-1
106	0x01	1
107	0xff	-1
108	0xff	-1
109	0x01	1
110	0x01	1
111	0xff	-1
112	0xff	-1
113	0xff	-1
114	0x01	1
115	0x01	1
116	0x01	1
117	0x01	1
118	0x01	1
119	0xff	-1
120	0xff	-1
121	0x01	1
122	0xff	-1
123	0xff	-1
124	0x01	1
125	0xff	-1
126	0x01	1
127	0x01	1
128	0x01	1
129	0xff	-1
130	0x01	1
131	0x01	1
132	0x01	1
133	0x01	1
134	0xff	-1
135	0x01	1
136	0x01	1
137	0x01	1
138	0xff	-1
139	0x01	1
140	0xff	-1
141	0xff	-1
142	0x01	1
143	0xff	-1
144	0xff	-1
145	0x01	1
146	0x01	1
147	0x01	1
148	0x01	1
149	0x01	1
150	0xff	-1
151	0x01	1
152	0x01	1
153	0xff	-1
154	0x01	1
155	0xff	-1
156	0xff	-1
157	0xff	-1
158	0x01	1
159	0x01	1
160	0x01	1
161	0x01	1
162	0x01	1
163	0x01	1
164	0xff	-1
165	0xff	-1
166	0xff	-1
167	0x01	1
168	0xff	-1
169	0x01	1
170	0x01	1
171	0xff	-1
172	0x01	1
173	0x01	1
174	0xff	-1
175	0x01	1
176	0xff	-1
177	0x01	1
178	0xff	-1
179	0xff	-1
180	0xff	-1
181	0x01	1
182	0x01	1
183	0xff	-1
184	0xff	-1
185	0x01	1
186	0xff	-1
187	0x01	1
188	0x01	1
189	0x01	1
190	0x01	1
191	0x01	1
192	0x01	1
193	0xff	-1
194	0x01	1
195	0xff	-1
196	0xff	-1
197	0x01	1
198	0x01	1
199	0xff	-1
200	0xff	-1
201	0xff	-1
202	0x01	1
203	0x01	1
204	0x01	1
205	0x01	1
206	0x01	1
207	0xff	-1
208	0xff	-1
209	0xff	-1
210	0x01	1
211	0x01	1
212	0xff	-1
213	0xff	-1
214	0x01	1
215	0xff	-1
216	0x01	1
217	0xff	-1
218	0xff	-1
219	0xff	-1
220	0xff	-1
221	0x01	1
222	0xff	-1
223	0x01	1
224	0xff	-1
225	0xff	-1
226	0x01	1
227	0x01	1
228	0xff	-1
229	0xff	-1
230	0xff	-1
231	0x01	1
232	0xff	-1
233	0x01	1
234	0x01	1
235	0x01	1
236	0xff	-1
237	0xff	-1
238	0x01	1
239	0xff	-1
240	0xff	-1
241	0x01	1
242	0xff	-1
243	0x01	1
244	0x01	1
245	0x01	1
246	0xff	-1
247	0x01	1
248	0x01	1
249	0x01	1
250	0x01	1
251	0xff	-1
252	0x01	1
253	0x01	1
254	0x01	1
255	0xff	-1

12 i1 [12, 12]
0	0x01	1
1	0xff	-1
2	0xff	-1
3	0xff	-1
4	0xff	-1
5	0xff	-1
6	0xff	-1
7	0xff	-1
8	0xff	-1
9	0xff	-1
10	0xff	-1
11	0xff	-1
12	0x01	1
13	0x01	1
14	0xff	-1
15	0x01	1
16	0xff	-1
17	0xff	-1
18	0xff	-1
19	0x01	1
20	0x01	1
21	0x01	1
22	0xff	-1
23	0x01	1
24	0x01	1
25	0x01	1
26	0x01	1
27	0xff	-1
28	0x01	1
29	0xff	-1
30	0xff	-1
31	0xff	-1
32	0x01	1
33	0x01	1
34	0x01	1
35	0xff	-1
36	0x01	1
37	0xff	-1
38	0x01	1
39	0x01	1
40	0xff	-1
41	0x01	1
42	0xff	-1
43	0xff	-1
44	0xff	-1
45	0x01	1
46	0x01	1
47	0x01	1
48	0x01	1
49	0x01	1
50	0xff	-1
51	0x01	1
52	0x01	1
53	0xff	-1
54	0x01	1
55	0xff	-1
56	0xff	-1
57	0xff	-1
58	0x01	1
59	0x01	1
60	0x01	1
61	0x01	1
62	0x01	1
63	0xff	-1
64	0x01	1
65	0x01	1
66	0xff	-1
67	0x01	1
68	0xff	-1
69	0xff	-1
70	0xff	-1
71	0x01	1
72	0x01	1
73	0x01	1
74	0x01	1
75	0x01	1
76	0xff	-1
77	0x01	1
78	0x01	1
79	0xff	-1
80	0x01	1
81	0xff	-1
82	0xff	-1
83	0xff	-1
84	0x01	1
85	0xff	-1
86	0x01	1
87	0x01	1
88	0x01	1
89	0xff	-1
90	0x01	1
91	0x01	1
92	0xff	-1
93	0x01	1
94	0xff	-1
95	0xff	-1
96	0x01	1
97	0xff	-1
98	0xff	-1
99	0x01	1
100	0x01	1
101	0x01	1
102	0xff	-1
103	0x01	1
104	0x01	1
105	0xff	-1
106	0x01	1
107	0xff	-1
108	0x01	1
109	0xff	-1
110	0xff	-1
111	0xff	-1
112	0x01	1
113	0x01	1
114	0x01	1
115	0xff	-1
116	0x01	1
117	0x01	1
118	0xff	-1
119	0x01	1
120	0x01	1
121	0x01	1
122	0xff	-1
123	0xff	-1
124	0xff	-1
125	0x01	1
126	0x01	1
127	0x01	1
128	0xff	-1
129	0x01	1
130	0x01	1
131	0xff	-1
132	0x01	1
133	0xff	-1
134	0x01	1
135	0xff	-1
136	0xff	-1
137	0xff	-1
138	0x01	1
139	0x01	1
140	0x01	1
141	0xff	-1
142	0x01	1
143	0x01	1

120 i1 [120, 120]
0	0x01	1
1	0xff	-1
2	0xff	-1
3	0xff	-1
4	0xff	-1
5	0xff	-1
6	0xff	-1
7	0xff	-1
8	0xff	-1
9	0xff	-1
10	0xff	-1
11	0xff	-1
12	0xff	-1
13	0xff	-1
14	0xff	-1
15	0xff	-1
16	0xff	-1
17	0xff	-1
18	0xff	-1
19	0xff	-1
20	0xff	-1
21	0xff	-1
22	0xff	-1
23	0xff	-1
24	0xff	-1
25	0xff	-1
26	0xff	-1
27	0xff	-1
28	0xff	-1
29	0xff	-1
30	0xff	-1
31	0xff	-1
32	0xff	-1
33	0xff	-1
34	0xff	-1
35	0xff	-1
36	0xff	-1
37	0xff	-1
38	0xff	-1
39	0xff	-1
40	0xff	-1
41	0xff	-1
42	0xff	-1
43	0xff	-1
44	0xff	-1
45	0xff	-1
46	0xff	-1
47	0xff	-1
48	0xff	-1
49	0xff	-1
50	0xff	-1
51	0xff	-1
52	0xff	-1
53	0xff	-1
54	0xff	-1
55	0xff	-1
56	0xff	-1
57	0xff	-1
58	0xff	-1
59	0xff	-1
60	0x01	1
61	0xff	-1
62	0xff	-1
63	0xff	-1
64	0xff	-1
65	0xff	-1
66	0xff	-1
67	0xff	-1
68	0xff	-1
69	0xff	-1
70	0xff	-1
71	0xff	-1
72	0xff	-1
73	0xff	-1
74	0xff	-1
75	0xff	-1
76	0xff	-1
77	0xff	-1
78	0xff	-1
79	0xff	-1
80	0xff	-1
81	0xff	-1
82	0xff	-1
83	0xff	-1
84	0xff	-1
85	0xff	-1
86	0xff	-1
87	0xff	-1
88	0xff	-1
89	0xff	-1
90	0xff	-1
91	0xff	-1
92	0xff	-1
93	0xff	-1
94	0xff	-1
95	0xff	-1
96	0xff	-1
97	0xff	-1
98	0xff	-1
99	0xff	-1
100	0xff	-1
101	0xff	-1
102	0xff	-1
103	0xff	-1
104	0xff	-1
105	0xff	-1
106	0xff	-1
107	0xff	-1
108	0xff	-1
109	0xff	-1
110	0xff	-1
111	0xff	-1
112	0xff	-1
113	0xff	-1
114	0xff	-1
115	0xff	-1
116	0xff	-1
117	0xff	-1
118	0xff	-1
119	0xff	-1
120	0x01	1
121	0x01	1
122	0xff	-1
123	0x01	1
124	0xff	-1
125	0xff	-1
126	0xff	-1
127	0x01	1
128	0xff	-1
129	0x01	1
130	0xff	-1
131	0x01	1
132	0x01	1
133	0xff	-1
134	0x01	1
135	0x01	1
136	0xff	-1
137	0xff	-1
138	0xff	-1
139	0x01	1
140	0xff	-1
141	0xff	-1
142	0xff	-1
143	0xff	-1
144	0x01	1
145	0x01	1
146	0xff	-1
147	0xff	-1
148	0xff	-1
149	0xff	-1
150	0xff	-1
151	0x01	1
152	0x01	1
153	0x01	1
154	0x01	1
155	0x01	1
156	0xff	-1
157	0xff	-1
158	0x01	1
159	0x01	1
160	0x01	1
161	0x01	1
162	0xff	-1
163	0x01	1
164	0x01	1
165	0x01	1
166	0xff	-1
167	0xff	-1
168	0x01	1
169	0xff	-1
170	0xff	-1
171	0x01	1
172	0xff	-1
173	0x01	1
174	0xff	-1
175	0x01	1
176	0x01	1
177	0x01	1
178	0xff	-1
179	0x01	1
180	0x01	1
181	0x01	1
182	0xff	-1
183	0x01	1
184	0xff	-1
185	0xff	-1
186	0xff	-1
187	0x01	1
188	0xff	-1
189	0x01	1
190	0xff	-1
191	0x01	1
192	0x01	1
193	0xff	-1
194	0x01	1
195	0x01	1
196	0xff	-1
197	0xff	-1
198	0xff	-1
199	0x01	1
200	0xff	-1
201	0xff	-1
202	0xff	-1
203	0xff	-1
204	0x01	1
205	0x01	1
206	0xff	-1
207	0xff	-1
208	0xff	-1
209	0xff	-1
210	0xff	-1
211	0x01	1
212	0x01	1
213	0x01	1
214	0x01	1
215	0x01	1
216	0xff	-1
217	0xff	-1
218	0x01	1
219	0x01	1
220	0x01	1
221	0x01	1
222	0xff	-1
223	0x01	1
224	0x01	1
225	0x01	1
226	0xff	-1
227	0xff	-1
228	0x01	1
229	0xff	-1
230	0xff	-1
231	0x01	1
232	0xff	-1
233	0x01	1
234	0xff	-1
235	0x01	1
236	0x01	1
237	0x01	1
238	0xff	-1
239	0x01	1
240	0x01	1
241	0x01	1
242	0x01	1
243	0xff	-1
244	0x01	1
245	0xff	-1
246	0xff	-1
247	0xff	-1
248	0x01	1
249	0xff	-1
250	0x01	1
251	0xff	-1
252	0x01	1
253	0x01	1
254	0xff	-1
255	0x01	1

124 i1 [124, 124]
0	0x01	1
1	0x01	1
2	0x01	1
3	0x01	1
4	0x01	1
5	0x01	1
6	0x01	1
7	0x01	1
8	0x01	1
9	0x01	1
10	0x01	1
11	0x01	1
12	0x01	1
13	0x01	1
14	0x01	1
15	0x01	1
16	0x01	1
17	0x01	1
18	0x01	1
19	0x01	1
20	0x01	1
21	0x01	1
22	0x01	1
23	0x01	1
24	0x01	1
25	0x01	1
26	0x01	1
27	0x01	1
28	0x01	1
29	0x01	1
30	0x01	1
31	0x01	1
32	0x01	1
33	0x01	1
34	0x01	1
35	0x01	1
36	0x01	1
37	0x01	1
38	0x01	1
39	0x01	1
40	0x01	1
41	0x01	1
42	0x01	1
43	0x01	1
44	0x01	1
45	0x01	1
46	0x01	1
47	0x01	1
48	0x01	1
49	0x01	1
50	0x01	1
51	0x01	1
52	0x01	1
53	0x01	1
54	0x01	1
55	0x01	1
56	0x01	1
57	0x01	1
58	0x01	1
59	0x01	1
60	0x01	1
61	0x01	1
62	0xff	-1
63	0x01	1
64	0x01	1
65	0x01	1
66	0x01	1
67	0x01	1
68	0x01	1
69	0x01	1
70	0x01	1
71	0x01	1
72	0x01	1
73	0x01	1
74	0x01	1
75	0x01	1
76	0x01	1
77	0x01	1
78	0x01	1
79	0x01	1
80	0x01	1
81	0x01	1
82	0x01	1
83	0x01	1
84	0x01	1
85	0x01	1
86	0x01	1
87	0x01	1
88	0x01	1
89	0x01	1
90	0x01	1
91	0x01	1
92	0x01	1
93	0x01	1
94	0x01	1
95	0x01	1
96	0x01	1
97	0x01	1
98	0x01	1
99	0x01	1
100	0x01	1
101	0x01	1
102	0x01	1
103	0x01	1
104	0x01	1
105	0x01	1
106	0x01	1
107	0x01	1
108	0x01	1
109	0x01	1
110	0x01	1
111	0x01	1
112	0x01	1
113	0x01	1
114	0x01	1
115	0x01	1
116	0x01	1
117	0x01	1
118	0x01	1
119	0x01	1
120	0x01	1
121	0x01	1
122	0x01	1
123	0x01	1
124	0x01	1
125	0x01	1
126	0x01	1
127	0xff	-1
128	0x01	1
129	0x01	1
130	0x01	1
131	0xff	-1
132	0xff	-1
133	0xff	-1
134	0x01	1
135	0xff	-1
136	0xff	-1
137	0x01	1
138	0x01	1
139	0x01	1
140	0x01	1
141	0x01	1
142	0xff	-1
143	0xff	-1
144	0x01	1
145	0x01	1
146	0xff	-1
147	0x01	1
148	0xff	-1
149	0xff	-1
150	0x01	1
151	0xff	-1
152	0x01	1
153	0xff	-1
154	0xff	-1
155	0xff	-1
156	0xff	-1
157	0xff	-1
158	0xff	-1
159	0x01	1
160	0xff	-1
161	0x01	1
162	0xff	-1
163	0xff	-1
164	0x01	1
165	0xff	-1
166	0x01	1
167	0x01	1
168	0xff	-1
169	0xff	-1
170	0x01	1
171	0x01	1
172	0x01	1
173	0x01	1
174	0x01	1
175	0xff	-1
176	0xff	-1
177	0x01	1
178	0xff	-1
179	0xff	-1
180	0xff	-1
181	0x01	1
182	0x01	1
183	0x01	1
184	0xff	-1
185	0x01	1
186	0x01	1
187	0xff	-1
188	0x01	1
189	0xff	-1
190	0x01	1
191	0x01	1
192	0x01	1
193	0xff	-1
194	0xff	-1
195	0xff	-1
196	0x01	1
197	0xff	-1
198	0xff	-1
199	0x01	1
200	0x01	1
201	0x01	1
202	0x01	1
203	0x01	1
204	0xff	-1
205	0xff	-1
206	0x01	1
207	0x01	1
208	0xff	-1
209	0x01	1
210	0xff	-1
211	0xff	-1
212	0x01	1
213	0xff	-1
214	0x01	1
215	0xff	-1
216	0xff	-1
217	0xff	-1
218	0xff	-1
219	0xff	-1
220	0xff	-1
221	0x01	1
222	0xff	-1
223	0x01	1
224	0xff	-1
225	0xff	-1
226	0x01	1
227	0xff	-1
228	0x01	1
229	0x01	1
230	0xff	-1
231	0xff	-1
232	0x01	1
233	0x01	1
234	0x01	1
235	0x01	1
236	0x01	1
237	0xff	-1
238	0xff	-1
239	0x01	1
240	0xff	-1
241	0xff	-1
242	0xff	-1
243	0x01	1
244	0x01	1
245	0x01	1
246	0xff	-1
247	0x01	1
248	0x01	1
249	0x01	1
250	0x01	1
251	0x01	1
252	0xff	-1
253	0x01	1
254	0x01	1
255	0x01	1

16 i1 [16, 16]
0	0x01	1
1	0x01	1
2	0x01	1
3	0x01	1
4	0x01	1
5	0x01	1
6	0x01	1
7	0x01	1
8	0x01	1
9	0x01	1
10	0x01	1
11	0x01	1
12	0x01	1
13	0x01	1
14	0x01	1
15	0x01	1
16	0x01	1
17	0xff	-1
18	0x01	1
19	0xff	-1
20	0x01	1
21	0xff	-1
22	0x01	1
23	0xff	-1
24	0x01	1
25	0xff	-1
26	0x01	1
27	0xff	-1
28	0x01	1
29	0xff	-1
30	0x01	1
31	0xff	-1
32	0x01	1
33	0x01	1
34	0xff	-1
35	0xff	-1
36	0x01	1
37	0x01	1
38	0xff	-1
39	0xff	-1
40	0x01	1
41	0x01	1
42	0xff	-1
43	0xff	-1
44	0x01	1
45	0x01	1
46	0xff	-1
47	0xff	-1
48	0x01	1
49	0xff	-1
50	0xff	-1
51	0x01	1
52	0x01	1
53	0xff	-1
54	0xff	-1
55	0x01	1
56	0x01	1
57	0xff	-1
58	0xff	-1
59	0x01	1
60	0x01	1
61	0xff	-1
62	0xff	-1
63	0x01	1
64	0x01	1
65	0x01	1
66	0x01	1
67	0x01	1
68	0xff	-1
69	0xff	-1
70	0xff	-1
71	0xff	-1
72	0x01	1
73	0x01	1
74	0x01	1
75	0x01	1
76	0xff	-1
77	0xff	-1
78	0xff	-1
79	0xff	-1
80	0x01	1
81	0xff	-1
82	0x01	1
83	0xff	-1
84	0xff	-1
85	0x01	1
86	0xff	-1
87	0x01	1
88	0x01	1
89	0xff	-1
90	0x01	1
91	0xff	-1
92	0xff	-1
93	0x01	1
94	0xff	-1
95	0x01	1
96	0x01	1
97	0x01	1
98	0xff	-1
99	0xff	-1
100	0xff	-1
101	0xff	-1
102	0x01	1
103	0x01	1
104	0x01	1
105	0x01	1
106	0xff	-1
107	0xff	-1
108	0xff	-1
109	0xff	-1
110	0x01	1
111	0x01	1
112	0x01	1
113	0xff	-1
114	0xff	-1
115	0x01	1
116	0xff	-1
117	0x01	1
118	0x01	1
119	0xff	-1
120	0x01	1
121	0xff	-1
122	0xff	-1
123	0x01	1
124	0xff	-1
125	0x01	1
126	0x01	1
127	0xff	-1
128	0x01	1
129	0x01	1
130	0x01	1
131	0x01	1
132	0x01	1
133	0x01	1
134	0x01	1
135	0x01	1
136	0xff	-1
137	0xff	-1
138	0xff	-1
139	0xff	-1
140	0xff	-1
141	0xff	-1
142	0xff	-1
143	0xff	-1
144	0x01	1
145	0xff	-1
146	0x01	1
147	0xff	-1
148	0x01	1
149	0xff	-1
150	0x01	1
151	0xff	-1
152	0xff	-1
153	0x01	1
154	0xff	-1
155	0x01	1
156	0xff	-1
157	0x01	1
158	0xff	-1
159	0x01	1
160	0x01	1
161	0x01	1
162	0xff	-1
163	0xff	-1
164	0x01	1
165	0x01	1
166	0xff	-1
167	0xff	-1
168	0xff	-1
169	0xff	-1
170	0x01	1
171	0x01	1
172	0xff	-1
173	0xff	-1
174	0x01	1
175	0x01	1
176	0x01	1
177	0xff	-1
178	0xff	-1
179	0x01	1
180	0x01	1
181	0xff	-1
182	0xff	-1
183	0x01	1
184	0xff	-1
185	0x01	1
186	0x01	1
187	0xff	-1
188	0xff	-1
189	0x01	1
190	0x01	1
191	0xff	-1
192	0x01	1
193	0x01	1
194	0x01	1
195	0x01	1
196	0xff	-1
197	0xff	-1
198	0xff	-1
199	0xff	-1
200	0xff	-1
201	0xff	-1
202	0xff	-1
203	0xff	-1
204	0x01	1
205	0x01	1
206	0x01	1
207	0x01	1
208	0x01	1
209	0xff	-1
210	0x01	1
211	0xff	-1
212	0xff	-1
213	0x01	1
214	0xff	-1
215	0x01	1
216	0xff	-1
217	0x01	1
218	0xff	-1
219	0x01	1
220	0x01	1
221	0xff	-1
222	0x01	1
223	0xff	-1
224	0x01	1
225	0x01	1
226	0xff	-1
227	0xff	-1
228	0xff	-1
229	0xff	-1
230	0x01	1
231	0x01	1
232	0xff	-1
233	0xff	-1
234	0x01	1
235	0x01	1
236	0x01	1
237	0x01	1
238	0xff	-1
239	0xff	-1
240	0x01	1
241	0xff	-1
242	0xff	-1
243	0x01	1
244	0xff	-1
245	0x01	1
246	0x01	1
247	0xff	-1
248	0xff	-1
249	0x01	1
250	0x01	1
251	0xff	-1
252	0x01	1
253	0xff	-1
254	0xff	-1
255	0x01	1

20 i1 [20, 20]
0	0x01	1
1	0x01	1
2	0x01	1
3	0x01	1
4	0x01	1
5	0x01	1
6	0x01	1
7	0x01	1
8	0x01	1
9	0x01	1
10	0x01	1
11	0x01	1
12	0x01	1
13	0x01	1
14	0x01	1
15	0x01	1
16	0x01	1
17	0x01	1
18	0x01	1
19	0x01	1
20	0x01	1
21	0x01	1
22	0x01	1
23	0x01	1
24	0x01	1
25	0x01	1
26	0x01	1
27	0x01	1
28	0x01	1
29	0x01	1
30	0xff	-1
31	0xff	-1
32	0xff	-1
33	0xff	-1
34	0xff	-1
35	0xff	-1
36	0xff	-1
37	0xff	-1
38	0xff	-1
39	0xff	-1
40	0x01	1
41	0x01	1
42	0x01	1
43	0x01	1
44	0x01	1
45	0xff	-1
46	0xff	-1
47	0xff	-1
48	0xff	-1
49	0xff	-1
50	0x01	1
51	0x01	1
52	0x01	1
53	0x01	1
54	0x01	1
55	0xff	-1
56	0xff	-1
57	0xff	-1
58	0xff	-1
59	0xff	-1
60	0x01	1
61	0xff	-1
62	0xff	-1
63	0xff	-1
64	0xff	-1
65	0xff	-1
66	0x01	1
67	0x01	1
68	0x01	1
69	0x01	1
70	0xff	-1
71	0x01	1
72	0x01	1
73	0x01	1
74	0x01	1
75	0x01	1
76	0xff	-1
77	0xff	-1
78	0xff	-1
79	0xff	-1
80	0x01	1
81	0x01	1
82	0xff	-1
83	0xff	-1
84	0xff	-1
85	0x01	1
86	0x01	1
87	0x01	1
88	0xff	-1
89	0xff	-1
90	0x01	1
91	0x01	1
92	0x01	1
93	0xff	-1
94	0xff	-1
95	0xff	-1
96	0x01	1
97	0x01	1
98	0xff	-1
99	0xff	-1
100	0x01	1
101	0xff	-1
102	0x01	1
103	0xff	-1
104	0xff	-1
105	0x01	1
106	0x01	1
107	0x01	1
108	0xff	-1
109	0xff	-1
110	0x01	1
111	0xff	-1
112	0xff	-1
113	0x01	1
114	0x01	1
115	0xff	-1
116	0xff	-1
117	0xff	-1
118	0x01	1
119	0x01	1
120	0x01	1
121	0xff	-1
122	0xff	-1
123	0x01	1
124	0xff	-1
125	0x01	1
126	0xff	-1
127	0xff	-1
128	0x01	1
129	0x01	1
130	0x01	1
131	0x01	1
132	0x01	1
133	0xff	-1
134	0xff	-1
135	0xff	-1
136	0xff	-1
137	0xff	-1
138	0x01	1
139	0x01	1
140	0x01	1
141	0xff	-1
142	0xff	-1
143	0xff	-1
144	0x01	1
145	0x01	1
146	0xff	-1
147	0xff	-1
148	0x01	1
149	0x01	1
150	0x01	1
151	0xff	-1
152	0xff	-1
153	0x01	1
154	0x01	1
155	0xff	-1
156	0x01	1
157	0x01	1
158	0xff	-1
159	0xff	-1
160	0xff	-1
161	0xff	-1
162	0x01	1
163	0x01	1
164	0xff	-1
165	0x01	1
166	0x01	1
167	0xff	-1
168	0x01	1
169	0xff	-1
170	0x01	1
171	0x01	1
172	0xff	-1
173	0x01	1
174	0xff	-1
175	0x01	1
176	0x01	1
177	0xff	-1
178	0xff	-1
179	0xff	-1
180	0xff	-1
181	0xff	-1
182	0x01	1
183	0x01	1
184	0xff	-1
185	0x01	1
186	0xff	-1
187	0x01	1
188	0xff	-1
189	0x01	1
190	0x01	1
191	0xff	-1
192	0x01	1
193	0xff	-1
194	0x01	1
195	0x01	1
196	0xff	-1
197	0x01	1
198	0xff	-1
199	0xff	-1
200	0xff	-1
201	0x01	1
202	0xff	-1
203	0xff	-1
204	0x01	1
205	0x01	1
206	0x01	1
207	0xff	-1
208	0x01	1
209	0xff	-1
210	0x01	1
211	0xff	-1
212	0x01	1
213	0xff	-1
214	0x01	1
215	0x01	1
216	0xff	-1
217	0xff	-1
218	0x01	1
219	0xff	-1
220	0xff	-1
221	0x01	1
222	0xff	-1
223	0xff	-1
224	0x01	1
225	0x01	1
226	0xff	-1
227	0x01	1
228	0xff	-1
229	0x01	1
230	0x01	1
231	0x01	1
232	0xff	-1
233	0x01	1
234	0xff	-1
235	0x01	1
236	0xff	-1
237	0xff	-1
238	0xff	-1
239	0x01	1
240	0xff	-1
241	0xff	-1
242	0x01	1
243	0xff	-1
244	0x01	1
245	0x01	1
246	0x01	1
247	0xff	-1
248	0xff	-1
249	0x01	1
250	0xff	-1
251	0x01	1
252	0x01	1
253	0x01	1
254	0xff	-1
255	0xff	-1

24 i1 [24, 24]
0	0x01	1
1	0xff	-1
2	0xff	-1
3	0xff	-1
4	0xff	-1
5	0xff	-1
6	0xff	-1
7	0xff	-1
8	0xff	-1
9	0xff	-1
10	0xff	-1
11	0xff	-1
12	0xff	-1
13	0xff	-1
14	0xff	-1
15	0xff	-1
16	0xff	-1
17	0xff	-1
18	0xff	-1
19	0xff	-1
20	0xff	-1
21	0xff	-1
22	0xff	-1
23	0xff	-1
24	0x01	1
25	0x01	1
26	0xff	-1
27	0xff	-1
28	0xff	-1
29	0xff	-1
30	0x01	1
31	0xff	-1
32	0x01	1
33	0xff	-1
34	0xff	-1
35	0x01	1
36	0x01	1
37	0xff	-1
38	0xff	-1
39	0x01	1
40	0x01	1
41	0xff	-1
42	0x01	1
43	0xff	-1
44	0x01	1
45	0x01	1
46	0x01	1
47	0x01	1
48	0x01	1
49	0x01	1
50	0x01	1
51	0xff	-1
52	0xff	-1
53	0xff	-1
54	0xff	-1
55	0x01	1
56	0xff	-1
57	0x01	1
58	0xff	-1
59	0xff	-1
60	0x01	1
61	0x01	1
62	0xff	-1
63	0xff	-1
64	0x01	1
65	0x01	1
66	0xff	-1
67	0x01	1
68	0xff	-1
69	0x01	1
70	0x01	1
71	0x01	1
72	0x01	1
73	0x01	1
74	0x01	1
75	0x01	1
76	0xff	-1
77	0xff	-1
78	0xff	-1
79	0xff	-1
80	0x01	1
81	0xff	-1
82	0x01	1
83	0xff	-1
84	0xff	-1
85	0x01	1
86	0x01	1
87	0xff	-1
88	0xff	-1
89	0x01	1
90	0x01	1
91	0xff	-1
92	0x01	1
93	0xff	-1
94	0x01	1
95	0x01	1
96	0x01	1
97	0x01	1
98	0x01	1
99	0x01	1
100	0x01	1
101	0xff	-1
102	0xff	-1
103	0xff	-1
104	0xff	-1
105	0x01	1
106	0xff	-1
107	0x01	1
108	0xff	-1
109	0xff	-1
110	0x01	1
111	0x01	1
112	0xff	-1
113	0xff	-1
114	0x01	1
115	0x01	1
116	0xff	-1
117	0x01	1
118	0xff	-1
119	0x01	1
120	0x01	1
121	0x01	1
122	0x01	1
123	0x01	1
124	0x01	1
125	0x01	1
126	0xff	-1
127	0xff	-1
128	0xff	-1
129	0xff	-1
130	0x01	1
131	0xff	-1
132	0x01	1
133	0xff	-1
134	0xff	-1
135	0x01	1
136	0x01	1
137	0xff	-1
138	0xff	-1
139	0x01	1
140	0x01	1
141	0xff	-1
142	0x01	1
143	0xff	-1
144	0x01	1
145	0xff	-1
146	0x01	1
147	0x01	1
148	0x01	1
149	0x01	1
150	0x01	1
151	0xff	-1
152	0xff	-1
153	0xff	-1
154	0xff	-1
155	0x01	1
156	0xff	-1
157	0x01	1
158	0xff	-1
159	0xff	-1
160	0x01	1
161	0x01	1
162	0xff	-1
163	0xff	-1
164	0x01	1
165	0x01	1
166	0xff	-1
167	0x01	1
168	0x01	1
169	0x01	1
170	0xff	-1
171	0x01	1
172	0x01	1
173	0x01	1
174	0x01	1
175	0x01	1
176	0xff	-1
177	0xff	-1
178	0xff	-1
179	0xff	-1
180	0x01	1
181	0xff	-1
182	0x01	1
183	0xff	-1
184	0xff	-1
185	0x01	1
186	0x01	1
187	0xff	-1
188	0xff	-1
189	0x01	1
190	0x01	1
191	0xff	-1
192	0x01	1
193	0xff	-1
194	0x01	1
195	0xff	-1
196	0x01	1
197	0x01	1
198	0x01	1
199	0x01	1
200	0x01	1
201	0xff	-1
202	0xff	-1
203	0xff	-1
204	0xff	-1
205	0x01	1
206	0xff	-1
207	0x01	1
208	0xff	-1
209	0xff	-1
210	0x01	1
211	0x01	1
212	0xff	-1
213	0xff	-1
214	0x01	1
215	0x01	1
216	0x01	1
217	0x01	1
218	0xff	-1
219	0x01	1
220	0xff	-1
221	0x01	1
222	0x01	1
223	0x01	1
224	0x01	1
225	0x01	1
226	0xff	-1
227	0xff	-1
228	0xff	-1
229	0xff	-1
230	0x01	1
231	0xff	-1
232	0x01	1
233	0xff	-1
234	0xff	-1
235	0x01	1
236	0x01	1
237	0xff	-1
238	0xff	-1
239	0x01	1
240	0x01	1
241	0x01	1
242	0x01	1
243	0xff	-1
244	0x01	1
245	0xff	-1
246	0x01	1
247	0x01	1
248	0x01	1
249	0x01	1
250	0x01	1
251	0xff	-1
252	0xff	-1
253	0xff	-1
254	0xff	-1
255	0x01	1

28 i1 [28, 28]
0	0x01	1
1	0x01	1
2	0x01	1
3	0x01	1
4	0x01	1
5	0x01	1
6	0x01	1
7	0x01	1
8	0x01	1
9	0x01	1
10	0x01	1
11	0x01	1
12	0x01	1
13	0x01	1
14	0xff	-1
15	0x01	1
16	0x01	1
17	0x01	1
18	0x01	1
19	0x01	1
20	0x01	1
21	0x01	1
22	0x01	1
23	0x01	1
24	0x01	1
25	0x01	1
26	0x01	1
27	0x01	1
28	0x01	1
29	0x01	1
30	0x01	1
31	0xff	-1
32	0x01	1
33	0x01	1
34	0xff	-1
35	0xff	-1
36	0xff	-1
37	0xff	-1
38	0x01	1
39	0x01	1
40	0xff	-1
41	0x01	1
42	0x01	1
43	0xff	-1
44	0x01	1
45	0xff	-1
46	0x01	1
47	0x01	1
48	0xff	-1
49	0xff	-1
50	0xff	-1
51	0xff	-1
52	0x01	1
53	0x01	1
54	0xff	-1
55	0x01	1
56	0x01	1
57	0x01	1
58	0x01	1
59	0x01	1
60	0xff	-1
61	0x01	1
62	0x01	1
63	0xff	-1
64	0xff	-1
65	0xff	-1
66	0xff	-1
67	0x01	1
68	0x01	1
69	0xff	-1
70	0x01	1
71	0x01	1
72	0xff	-1
73	0x01	1
74	0xff	-1
75	0x01	1
76	0x01	1
77	0xff	-1
78	0xff	-1
79	0xff	-1
80	0xff	-1
81	0x01	1
82	0x01	1
83	0xff	-1
84	0x01	1
85	0xff	-1
86	0x01	1
87	0x01	1
88	0x01	1
89	0xff	-1
90	0x01	1
91	0x01	1
92	0xff	-1
93	0xff	-1
94	0xff	-1
95	0xff	-1
96	0x01	1
97	0x01	1
98	0x01	1
99	0xff	-1
100	0x01	1
101	0xff	-1
102	0x01	1
103	0xff	-1
104	0x01	1
105	0x01	1
106	0xff	-1
107	0xff	-1
108	0xff	-1
109	0xff	-1
110	0x01	1
111	0x01	1
112	0x01	1
113	0x01	1
114	0xff	-1
115	0x01	1
116	0x01	1
117	0x01	1
118	0xff	-1
119	0x01	1
120	0x01	1
121	0xff	-1
122	0xff	-1
123	0xff	-1
124	0xff	-1
125	0x01	1
126	0x01	1
127	0x01	1
128	0xff	-1
129	0x01	1
130	0xff	-1
131	0x01	1
132	0xff	-1
133	0x01	1
134	0x01	1
135	0xff	-1
136	0xff	-1
137	0xff	-1
138	0xff	-1
139	0x01	1
140	0x01	1
141	0x01	1
142	0x01	1
143	0xff	-1
144	0x01	1
145	0x01	1
146	0x01	1
147	0xff	-1
148	0x01	1
149	0x01	1
150	0xff	-1
151	0xff	-1
152	0xff	-1
153	0xff	-1
154	0x01	1
155	0x01	1
156	0x01	1
157	0xff	-1
158	0x01	1
159	0xff	-1
160	0x01	1
161	0xff	-1
162	0x01	1
163	0x01	1
164	0xff	-1
165	0xff	-1
166	0xff	-1
167	0xff	-1
168	0x01	1
169	0xff	-1
170	0x01	1
171	0x01	1
172	0xff	-1
173	0x01	1
174	0x01	1
175	0x01	1
176	0xff	-1
177	0x01	1
178	0x01	1
179	0xff	-1
180	0xff	-1
181	0xff	-1
182	0x01	1
183	0xff	-1
184	0x01	1
185	0x01	1
186	0xff	-1
187	0x01	1
188	0xff	-1
189	0x01	1
190	0xff	-1
191	0x01	1
192	0x01	1
193	0xff	-1
194	0xff	-1
195	0xff	-1
196	0x01	1
197	0xff	-1
198	0xff	-1
199	0x01	1
200	0x01	1
201	0xff	-1
202	0x01	1
203	0x01	1
204	0x01	1
205	0xff	-1
206	0x01	1
207	0x01	1
208	0xff	-1
209	0xff	-1
210	0x01	1
211	0xff	-1
212	0xff	-1
213	0x01	1
214	0x01	1
215	0xff	-1
216	0x01	1
217	0xff	-1
218	0x01	1
219	0xff	-1
220	0x01	1
221	0x01	1
222	0xff	-1
223	0xff	-1
224	0x01	1
225	0xff	-1
226	0xff	-1
227	0xff	-1
228	0x01	1
229	0x01	1
230	0xff	-1
231	0x01	1
232	0x01	1
233	0x01	1
234	0xff	-1
235	0x01	1
236	0x01	1
237	0xff	-1
238	0x01	1
239	0xff	-1
240	0xff	-1
241	0xff	-1
242	0x01	1
243	0x01	1
244	0xff	-1
245	0x01	1
246	0xff	-1
247	0x01	1
248	0xff	-1
249	0x01	1
250	0x01	1
251	0xff	-1
252	0x01	1
253	0xff	-1
254	0xff	-1
255	0xff	-1

32 i1 [32, 32]
0	0x01	1
1	0xff	-1
2	0xff	-1
3	0xff	-1
4	0xff	-1
5	0xff	-1
6	0xff	-1
7	0xff	-1
8	0xff	-1
9	0xff	-1
10	0xff	-1
11	0xff	-1
12	0xff	-1
13	0xff	-1
14	0xff	-1
15	0xff	-1
16	0xff	-1
17	0xff	-1
18	0xff	-1
19	0xff	-1
20	0xff	-1
21	0xff	-1
22	0xff	-1
23	0xff	-1
24	0xff	-1
25	0xff	-1
26	0xff	-1
27	0xff	-1
28	0xff	-1
29	0xff	-1
30	0xff	-1
31	0xff	-1
32	0x01	1
33	0x01	1
34	0xff	-1
35	0xff	-1
36	0x01	1
37	0xff	-1
38	0xff	-1
39	0x01	1
40	0xff	-1
41	0xff	-1
42	0xff	-1
43	0xff	-1
44	0x01	1
45	0x01	1
46	0x01	1
47	0xff	-1
48	0x01	1
49	0xff	-1
50	0x01	1
51	0xff	-1
52	0xff	-1
53	0xff	-1
54	0x01	1
55	0x01	1
56	0x01	1
57	0x01	1
58	0xff	-1
59	0x01	1
60	0x01	1
61	0xff	-1
62	0x01	1
63	0x01	1
64	0x01	1
65	0x01	1
66	0x01	1
67	0xff	-1
68	0xff	-1
69	0x01	1
70	0xff	-1
71	0xff	-1
72	0x01	1
73	0xff	-1
74	0xff	-1
75	0xff	-1
76	0xff	-1
77	0x01	1
78	0x01	1
79	0x01	1
80	0xff	-1
81	0x01	1
82	0xff	-1
83	0x01	1
84	0xff	-1
85	0xff	-1
86	0xff	-1
87	0x01	1
88	0x01	1
89	0x01	1
90	0x01	1
91	0xff	-1
92	0x01	1
93	0x01	1
94	0xff	-1
95	0x01	1
96	0x01	1
97	0x01	1
98	0x01	1
99	0x01	1
100	0xff	-1
101	0xff	-1
102	0x01	1
103	0xff	-1
104	0xff	-1
105	0x01	1
106	0xff	-1
107	0xff	-1
108	0xff	-1
109	0xff	-1
110	0x01	1
111	0x01	1
112	0x01	1
113	0xff	-1
114	0x01	1
115	0xff	-1
116	0x01	1
117	0xff	-1
118	0xff	-1
119	0xff	-1
120	0x01	1
121	0x01	1
122	0x01	1
123	0x01	1
124	0xff	-1
125	0x01	1
126	0x01	1
127	0xff	-1
128	0x01	1
129	0xff	-1
130	0x01	1
131	0x01	1
132	0x01	1
133	0xff	-1
134	0xff	-1
135	0x01	1
136	0xff	-1
137	0xff	-1
138	0x01	1
139	0xff	-1
140	0xff	-1
141	0xff	-1
142	0xff	-1
143	0x01	1
144	0x01	1
145	0x01	1
146	0xff	-1
147	0x01	1
148	0xff	-1
149	0x01	1
150	0xff	-1
151	0xff	-1
152	0xff	-1
153	0x01	1
154	0x01	1
155	0x01	1
156	0x01	1
157	0xff	-1
158	0x01	1
159	0x01	1
160	0x01	1
161	0x01	1
162	0xff	-1
163	0x01	1
164	0x01	1
165	0x01	1
166	0xff	-1
167	0xff	-1
168	0x01	1
169	0xff	-1
170	0xff	-1
171	0x01	1
172	0xff	-1
173	0xff	-1
174	0xff	-1
175	0xff	-1
176	0x01	1
177	0x01	1
178	0x01	1
179	0xff	-1
180	0x01	1
181	0xff	-1
182	0x01	1
183	0xff	-1
184	0xff	-1
185	0xff	-1
186	0x01	1
187	0x01	1
188	0x01	1
189	0x01	1
190	0xff	-1
191	0x01	1
192	0x01	1
193	0x01	1
194	0x01	1
195	0xff	-1
196	0x01	1
197	0x01	1
198	0x01	1
199	0xff	-1
200	0xff	-1
201	0x01	1
202	0xff	-1
203	0xff	-1
204	0x01	1
205	0xff	-1
206	0xff	-1
207	0xff	-1
208	0xff	-1
209	0x01	1
210	0x01	1
211	0x01	1
212	0xff	-1
213	0x01	1
214	0xff	-1
215	0x01	1
216	0xff	-1
217	0xff	-1
218	0xff	-1
219	0x01	1
220	0x01	1
221	0x01	1
222	0x01	1
223	0xff	-1
224	0x01	1
225	0xff	-1
226	0x01	1
227	0x01	1
228	0xff	-1
229	0x01	1
230	0x01	1
231	0x01	1
232	0xff	-1
233	0xff	-1
234	0x01	1
235	0xff	-1
236	0xff	-1
237	0x01	1
238	0xff	-1
239	0xff	-1
240	0xff	-1
241	0xff	-1
242	0x01	1
243	0x01	1
244	0x01	1
245	0xff	-1
246	0x01	1
247	0xff	-1
248	0x01	1
249	0xff	-1
250	0xff	-1
251	0xff	-1
252	0x01	1
253	0x01	1
254	0x01	1
255	0x01	1

36 i1 [36, 36]
0	0x01	1
1	0x01	1
2	0x01	1
3	0x01	1
4	0x01	1
5	0x01	1
6	0x01	1
7	0x01	1
8	0x01	1
9	0x01	1
10	0x01	1
11	0x01	1
12	0x01	1
13	0x01	1
14	0x01	1
15	0x01	1
16	0x01	1
17	0x01	1
18	0xff	-1
19	0x01	1
20	0x01	1
21	0x01	1
22	0x01	1
23	0x01	1
24	0x01	1
25	0x01	1
26	0x01	1
27	0x01	1
28	0x01	1
29	0x01	1
30	0x01	1
31	0x01	1
32	0x01	1
33	0x01	1
34	0x01	1
35	0x01	1
36	0x01	1
37	0x01	1
38	0x01	1
39	0x01	1
40	0xff	-1
41	0x01	1
42	0xff	-1
43	0xff	-1
44	0xff	-1
45	0x01	1
46	0x01	1
47	0xff	-1
48	0xff	-1
49	0xff	-1
50	0x01	1
51	0xff	-1
52	0x01	1
53	0x01	1
54	0x01	1
55	0xff	-1
56	0x01	1
57	0x01	1
58	0xff	-1
59	0x01	1
60	0xff	-1
61	0xff	-1
62	0xff	-1
63	0x01	1
64	0x01	1
65	0xff	-1
66	0xff	-1
67	0xff	-1
68	0x01	1
69	0xff	-1
70	0x01	1
71	0x01	1
72	0x01	1
73	0x01	1
74	0x01	1
75	0x01	1
76	0x01	1
77	0xff	-1
78	0x01	1
79	0xff	-1
80	0xff	-1
81	0xff	-1
82	0x01	1
83	0x01	1
84	0xff	-1
85	0xff	-1
86	0xff	-1
87	0x01	1
88	0xff	-1
89	0x01	1
90	0x01	1
91	0x01	1
92	0xff	-1
93	0x01	1
94	0x01	1
95	0xff	-1
96	0x01	1
97	0xff	-1
98	0xff	-1
99	0xff	-1
100	0x01	1
101	0x01	1
102	0xff	-1
103	0xff	-1
104	0xff	-1
105	0x01	1
106	0xff	-1
107	0x01	1
108	0x01	1
109	0x01	1
110	0x01	1
111	0x01	1
112	0x01	1
113	0x01	1
114	0xff	-1
115	0x01	1
116	0xff	-1
117	0xff	-1
118	0xff	-1
119	0x01	1
120	0x01	1
121	0xff	-1
122	0xff	-1
123	0xff	-1
124	0x01	1
125	0xff	-1
126	0x01	1
127	0x01	1
128	0x01	1
129	0xff	-1
130	0x01	1
131	0x01	1
132	0xff	-1
133	0x01	1
134	0xff	-1
135	0xff	-1
136	0xff	-1
137	0x01	1
138	0x01	1
139	0xff	-1
140	0xff	-1
141	0xff	-1
142	0x01	1
143	0xff	-1
144	0x01	1
145	0xff	-1
146	0x01	1
147	0x01	1
148	0x01	1
149	0x01	1
150	0x01	1
151	0xff	-1
152	0x01	1
153	0xff	-1
154	0xff	-1
155	0xff	-1
156	0x01	1
157	0x01	1
158	0xff	-1
159	0xff	-1
160	0xff	-1
161	0x01	1
162	0x01	1
163	0xff	-1
164	0x01	1
165	0x01	1
166	0xff	-1
167	0x01	1
168	0x01	1
169	0xff	-1
170	0x01	1
171	0xff	-1
172	0xff	-1
173	0xff	-1
174	0x01	1
175	0x01	1
176	0xff	-1
177	0xff	-1
178	0xff	-1
179	0x01	1
180	0x01	1
181	0x01	1
182	0xff	-1
183	0x01	1
184	0x01	1
185	0x01	1
186	0x01	1
187	0x01	1
188	0xff	-1
189	0x01	1
190	0xff	-1
191	0xff	-1
192	0xff	-1
193	0x01	1
194	0x01	1
195	0xff	-1
196	0xff	-1
197	0xff	-1
198	0x01	1
199	0x01	1
200	0xff	-1
201	0x01	1
202	0x01	1
203	0xff	-1
204	0x01	1
205	0x01	1
206	0xff	-1
207	0x01	1
208	0xff	-1
209	0xff	-1
210	0xff	-1
211	0x01	1
212	0x01	1
213	0xff	-1
214	0xff	-1
215	0xff	-1
216	0x01	1
217	0xff	-1
218	0x01	1
219	0xff	-1
220	0x01	1
221	0x01	1
222	0x01	1
223	0x01	1
224	0x01	1
225	0xff	-1
226	0x01	1
227	0xff	-1
228	0xff	-1
229	0xff	-1
230	0x01	1
231	0x01	1
232	0xff	-1
233	0xff	-1
234	0x01	1
235	0xff	-1
236	0x01	1
237	0xff	-1
238	0x01	1
239	0x01	1
240	0xff	-1
241	0x01	1
242	0x01	1
243	0xff	-1
244	0x01	1
245	0xff	-1
246	0xff	-1
247	0xff	-1
248	0x01	1
249	0x01	1
250	0xff	-1
251	0xff	-1
252	0x01	1
253	0xff	-1
254	0xff	-1
255	0x01	1

4 i1 [4, 4]
0	0x01	1
1	0x01	1
2	0x01	1
3	0x01	1
4	0x01	1
5	0xff	-1
6	0x01	1
7	0xff	-1
8	0x01	1
9	0x01	1
10	0xff	-1
11	0xff	-1
12	0x01	1
13	0xff	-1
14	0xff	-1
15	0x01	1

40 i1 [40, 40]
0	0x01	1
1	0xff	-1
2	0xff	-1
3	0xff	-1
4	0xff	-1
5	0xff	-1
6	0xff	-1
7	0xff	-1
8	0xff	-1
9	0xff	-1
10	0xff	-1
11	0xff	-1
12	0xff	-1
13	0xff	-1
14	0xff	-1
15	0xff	-1
16	0xff	-1
17	0xff	-1
18	0xff	-1
19	0xff	-1
20	0x01	1
21	0xff	-1
22	0xff	-1
23	0xff	-1
24	0xff	-1
25	0xff	-1
26	0xff	-1
27	0xff	-1
28	0xff	-1
29	0xff	-1
30	0xff	-1
31	0xff	-1
32	0xff	-1
33	0xff	-1
34	0xff	-1
35	0xff	-1
36	0xff	-1
37	0xff	-1
38	0xff	-1
39	0xff	-1
40	0x01	1
41	0x01	1
42	0xff	-1
43	0x01	1
44	0x01	1
45	0xff	-1
46	0xff	-1
47	0xff	-1
48	0xff	-1
49	0x01	1
50	0xff	-1
51	0x01	1
52	0xff	-1
53	0x01	1
54	0x01	1
55	0x01	1
56	0x01	1
57	0xff	-1
58	0xff	-1
59	0x01	1
60	0x01	1
61	0x01	1
62	0xff	-1
63	0x01	1
64	0x01	1
65	0xff	-1
66	0xff	-1
67	0xff	-1
68	0xff	-1
69	0x01	1
70	0xff	-1
71	0x01	1
72	0xff	-1
73	0x01	1
74	0x01	1
75	0x01	1
76	0x01	1
77	0xff	-1
78	0xff	-1
79	0x01	1
80	0x01	1
81	0x01	1
82	0x01	1
83	0xff	-1
84	0x01	1
85	0x01	1
86	0xff	-1
87	0xff	-1
88	0xff	-1
89	0xff	-1
90	0x01	1
91	0xff	-1
92	0x01	1
93	0xff	-1
94	0x01	1
95	0x01	1
96	0x01	1
97	0x01	1
98	0xff	-1
99	0xff	-1
100	0x01	1
101	0x01	1
102	0x01	1
103	0xff	-1
104	0x01	1
105	0x01	1
106	0xff	-1
107	0xff	-1
108	0xff	-1
109	0xff	-1
110	0x01	1
111	0xff	-1
112	0x01	1
113	0xff	-1
114	0x01	1
115	0x01	1
116	0x01	1
117	0x01	1
118	0xff	-1
119	0xff	-1
120	0x01	1
121	0xff	-1
122	0x01	1
123	0x01	1
124	0xff	-1
125	0x01	1
126	0x01	1
127	0xff	-1
128	0xff	-1
129	0xff	-1
130	0xff	-1
131	0x01	1
132	0xff	-1
133	0x01	1
134	0xff	-1
135	0x01	1
136	0x01	1
137	0x01	1
138	0x01	1
139	0xff	-1
140	0x01	1
141	0xff	-1
142	0x01	1
143	0x01	1
144	0xff	-1
145	0x01	1
146	0x01	1
147	0xff	-1
148	0xff	-1
149	0xff	-1
150	0xff	-1
151	0x01	1
152	0xff	-1
153	0x01	1
154	0xff	-1
155	0x01	1
156	0x01	1
157	0x01	1
158	0x01	1
159	0xff	-1
160	0x01	1
161	0xff	-1
162	0xff	-1
163	0x01	1
164	0x01	1
165	0xff	-1
166	0x01	1
167	0x01	1
168	0xff	-1
169	0xff	-1
170	0xff	-1
171	0xff	-1
172	0x01	1
173	0xff	-1
174	0x01	1
175	0xff	-1
176	0x01	1
177	0x01	1
178	0x01	1
179	0x01	1
180	0x01	1
181	0xff	-1
182	0xff	-1
183	0x01	1
184	0x01	1
185	0xff	-1
186	0x01	1
187	0x01	1
188	0xff	-1
189	0xff	-1
190	0xff	-1
191	0xff	-1
192	0x01	1
193	0xff	-1
194	0x01	1
195	0xff	-1
196	0x01	1
197	0x01	1
198	0x01	1
199	0x01	1
200	0x01	1
201	0x01	1
202	0xff	-1
203	0xff	-1
204	0x01	1
205	0x01	1
206	0xff	-1
207	0x01	1
208	0x01	1
209	0xff	-1
210	0xff	-1
211	0xff	-1
212	0xff	-1
213	0x01	1
214	0xff	-1
215	0x01	1
216	0xff	-1
217	0x01	1
218	0x01	1
219	0x01	1
220	0x01	1
221	0x01	1
222	0xff	-1
223	0xff	-1
224	0x01	1
225	0x01	1
226	0xff	-1
227	0x01	1
228	0x01	1
229	0xff	-1
230	0xff	-1
231	0xff	-1
232	0xff	-1
233	0x01	1
234	0xff	-1
235	0x01	1
236	0xff	-1
237	0x01	1
238	0x01	1
239	0x01	1
240	0x01	1
241	0x01	1
242	0x01	1
243	0xff	-1
244	0xff	-1
245	0x01	1
246	0x01	1
247	0xff	-1
248	0x01	1
249	0x01	1
250	0xff	-1
251	0xff	-1
252	0xff	-1
253	0xff	-1
254	0x01	1
255	0xff	-1

44 i1 [44, 44]
0	0x01	1
1	0xff	-1
2	0xff	-1
3	0xff	-1
4	0xff	-1
5	0xff	-1
6	0xff	-1
7	0xff	-1
8	0xff	-1
9	0xff	-1
10	0xff	-1
11	0xff	-1
12	0xff	-1
13	0xff	-1
14	0xff	-1
15	0xff	-1
16	0xff	-1
17	0xff	-1
18	0xff	-1
19	0xff	-1
20	0xff	-1
21	0xff	-1
22	0xff	-1
23	0xff	-1
24	0xff	-1
25	0xff	-1
26	0xff	-1
27	0xff	-1
28	0xff	-1
29	0xff	-1
30	0xff	-1
31	0xff	-1
32	0xff	-1
33	0xff	-1
34	0xff	-1
35	0xff	-1
36	0xff	-1
37	0xff	-1
38	0xff	-1
39	0xff	-1
40	0xff	-1
41	0xff	-1
42	0xff	-1
43	0xff	-1
44	0x01	1
45	0x01	1
46	0xff	-1
47	0x01	1
48	0x01	1
49	0xff	-1
50	0x01	1
51	0xff	-1
52	0x01	1
53	0x01	1
54	0xff	-1
55	0xff	-1
56	0xff	-1
57	0x01	1
58	0xff	-1
59	0xff	-1
60	0xff	-1
61	0xff	-1
62	0xff	-1
63	0x01	1
64	0x01	1
65	0x01	1
66	0xff	-1
67	0x01	1
68	0xff	-1
69	0xff	-1
70	0xff	-1
71	0x01	1
72	0x01	1
73	0x01	1
74	0x01	1
75	0x01	1
76	0xff	-1
77	0x01	1
78	0x01	1
79	0x01	1
80	0xff	-1
81	0xff	-1
82	0x01	1
83	0xff	-1
84	0x01	1
85	0xff	-1
86	0xff	-1
87	0x01	1
88	0x01	1
89	0x01	1
90	0x01	1
91	0xff	-1
92	0x01	1
93	0x01	1
94	0xff	-1
95	0x01	1
96	0xff	-1
97	0x01	1
98	0x01	1
99	0xff	-1
100	0xff	-1
101	0xff	-1
102	0x01	1
103	0xff	-1
104	0xff	-1
105	0xff	-1
106	0xff	-1
107	0xff	-1
108	0x01	1
109	0x01	1
110	0x01	1
111	0xff	-1
112	0x01	1
113	0xff	-1
114	0xff	-1
115	0xff	-1
116	0x01	1
117	0x01	1
118	0x01	1
119	0x01	1
120	0x01	1
121	0xff	-1
122	0x01	1
123	0x01	1
124	0x01	1
125	0xff	-1
126	0xff	-1
127	0x01	1
128	0xff	-1
129	0x01	1
130	0xff	-1
131	0xff	-1
132	0x01	1
133	0xff	-1
134	0x01	1
135	0x01	1
136	0xff	-1
137	0x01	1
138	0x01	1
139	0xff	-1
140	0x01	1
141	0xff	-1
142	0x01	1
143	0x01	1
144	0xff	-1
145	0xff	-1
146	0xff	-1
147	0x01	1
148	0xff	-1
149	0xff	-1
150	0xff	-1
151	0xff	-1
152	0xff	-1
153	0x01	1
154	0x01	1
155	0x01	1
156	0xff	-1
157	0x01	1
158	0xff	-1
159	0xff	-1
160	0xff	-1
161	0x01	1
162	0x01	1
163	0x01	1
164	0x01	1
165	0x01	1
166	0xff	-1
167	0x01	1
168	0x01	1
169	0x01	1
170	0xff	-1
171	0xff	-1
172	0x01	1
173	0xff	-1
174	0x01	1
175	0xff	-1
176	0x01	1
177	0xff	-1
178	0xff	-1
179	0x01	1
180	0x01	1
181	0xff	-1
182	0x01	1
183	0x01	1
184	0xff	-1
185	0x01	1
186	0xff	-1
187	0x01	1
188	0x01	1
189	0xff	-1
190	0xff	-1
191	0xff	-1
192	0x01	1
193	0xff	-1
194	0xff	-1
195	0xff	-1
196	0xff	-1
197	0xff	-1
198	0x01	1
199	0x01	1
200	0x01	1
201	0xff	-1
202	0x01	1
203	0xff	-1
204	0xff	-1
205	0xff	-1
206	0x01	1
207	0x01	1
208	0x01	1
209	0x01	1
210	0x01	1
211	0xff	-1
212	0x01	1
213	0x01	1
214	0x01	1
215	0xff	-1
216	0xff	-1
217	0x01	1
218	0xff	-1
219	0x01	1
220	0x01	1
221	0x01	1
222	0xff	-1
223	0xff	-1
224	0x01	1
225	0x01	1
226	0xff	-1
227	0x01	1
228	0x01	1
229	0xff	-1
230	0x01	1
231	0xff	-1
232	0x01	1
233	0x01	1
234	0xff	-1
235	0xff	-1
236	0xff	-1
237	0x01	1
238	0xff	-1
239	0xff	-1
240	0xff	-1
241	0xff	-1
242	0xff	-1
243	0x01	1
244	0x01	1
245	0x01	1
246	0xff	-1
247	0x01	1
248	0xff	-1
249	0xff	-1
250	0xff	-1
251	0x01	1
252	0x01	1
253	0x01	1
254	0x01	1
255	0x01	1

48 i1 [48, 48]
0	0x01	1
1	0xff	-1
2	0xff	-1
3	0xff	-1
4	0xff	-1
5	0xff	-1
6	0xff	-1
7	0xff	-1
8	0xff	-1
9	0xff	-1
10	0xff	-1
11	0xff	-1
12	0xff	-1
13	0xff	-1
14	0xff	-1
15	0xff	-1
16	0xff	-1
17	0xff	-1
18	0xff	-1
19	0xff	-1
20	0xff	-1
21	0xff	-1
22	0xff	-1
23	0xff	-1
24	0xff	-1
25	0xff	-1
26	0xff	-1
27	0xff	-1
28	0xff	-1
29	0xff	-1
30	0xff	-1
31	0xff	-1
32	0xff	-1
33	0xff	-1
34	0xff	-1
35	0xff	-1
36	0xff	-1
37	0xff	-1
38	0xff	-1
39	0xff	-1
40	0xff	-1
41	0xff	-1
42	0xff	-1
43	0xff	-1
44	0xff	-1
45	0xff	-1
46	0xff	-1
47	0xff	-1
48	0x01	1
49	0x01	1
50	0xff	-1
51	0xff	-1
52	0xff	-1
53	0xff	-1
54	0x01	1
55	0xff	-1
56	0xff	-1
57	0xff	-1
58	0xff	-1
59	0x01	1
60	0x01	1
61	0xff	-1
62	0x01	1
63	0xff	-1
64	0x01	1
65	0xff	-1
66	0xff	-1
67	0xff	-1
68	0x01	1
69	0x01	1
70	0xff	-1
71	0x01	1
72	0x01	1
73	0xff	-1
74	0xff	-1
75	0x01	1
76	0xff	-1
77	0xff	-1
78	0x01	1
79	0x01	1
80	0x01	1
81	0xff	-1
82	0x01	1
83	0xff	-1
84	0x01	1
85	0xff	-1
86	0xff	-1
87	0x01	1
88	0x01	1
89	0x01	1
90	0x01	1
91	0xff	-1
92	0x01	1
93	0x01	1
94	0x01	1
95	0x01	1
96	0x01	1
97	0x01	1
98	0x01	1
99	0xff	-1
100	0xff	-1
101	0xff	-1
102	0xff	-1
103	0x01	1
104	0xff	-1
105	0xff	-1
106	0xff	-1
107	0xff	-1
108	0x01	1
109	0x01	1
110	0xff	-1
111	0x01	1
112	0xff	-1
113	0x01	1
114	0xff	-1
115	0xff	-1
116	0xff	-1
117	0x01	1
118	0x01	1
119	0xff	-1
120	0x01	1
121	0x01	1
122	0xff	-1
123	0xff	-1
124	0x01	1
125	0xff	-1
126	0xff	-1
127	0x01	1
128	0x01	1
129	0x01	1
130	0xff	-1
131	0x01	1
132	0xff	-1
133	0x01	1
134	0xff	-1
135	0xff	-1
136	0x01	1
137	0x01	1
138	0x01	1
139	0x01	1
140	0xff	-1
141	0x01	1
142	0x01	1
143	0x01	1
144	0x01	1
145	0x01	1
146	0x01	1
147	0x01	1
148	0xff	-1
149	0xff	-1
150	0xff	-1
151	0xff	-1
152	0x01	1
153	0xff	-1
154	0xff	-1
155	0xff	-1
156	0xff	-1
157	0x01	1
158	0x01	1
159	0xff	-1
160	0x01	1
161	0xff	-1
162	0x01	1
163	0xff	-1
164	0xff	-1
165	0xff	-1
166	0x01	1
167	0x01	1
168	0xff	-1
169	0x01	1
170	0x01	1
171	0xff	-1
172	0xff	-1
173	0x01	1
174	0xff	-1
175	0xff	-1
176	0x01	1
177	0x01	1
178	0x01	1
179	0xff	-1
180	0x01	1
181	0xff	-1
182	0x01	1
183	0xff	-1
184	0xff	-1
185	0x01	1
186	0x01	1
187	0x01	1
188	0x01	1
189	0xff	-1
190	0x01	1
191	0x01	1
192	0x01	1
193	0x01	1
194	0x01	1
195	0x01	1
196	0x01	1
197	0xff	-1
198	0xff	-1
199	0xff	-1
200	0xff	-1
201	0x01	1
202	0xff	-1
203	0xff	-1
204	0xff	-1
205	0xff	-1
206	0x01	1
207	0x01	1
208	0xff	-1
209	0x01	1
210	0xff	-1
211	0x01	1
212	0xff	-1
213	0xff	-1
214	0xff	-1
215	0x01	1
216	0x01	1
217	0xff	-1
218	0x01	1
219	0x01	1
220	0xff	-1
221	0xff	-1
222	0x01	1
223	0xff	-1
224	0xff	-1
225	0x01	1
226	0x01	1
227	0x01	1
228	0xff	-1
229	0x01	1
230	0xff	-1
231	0x01	1
232	0xff	-1
233	0xff	-1
234	0x01	1
235	0x01	1
236	0x01	1
237	0x01	1
238	0xff	-1
239	0x01	1
240	0x01	1
241	0x01	1
242	0x01	1
243	0x01	1
244	0x01	1
245	0x01	1
246	0xff	-1
247	0xff	-1
248	0xff	-1
249	0xff	-1
250	0x01	1
251	0xff	-1
252	0xff	-1
253	0xff	-1
254	0xff	-1
255	0x01	1

52 i1 [52, 52]
0	0x01	1
1	0xff	-1
2	0x01	1
3	0xff	-1
4	0xff	-1
5	0x01	1
6	0x01	1
7	0x01	1
8	0x01	1
9	0xff	-1
10	0xff	-1
11	0x01	1
12	0xff	-1
13	0x01	1
14	0xff	-1
15	0xff	-1
16	0xff	-1
17	0x01	1
18	0x01	1
19	0x01	1
20	0x01	1
21	0x01	1
22	0x01	1
23	0xff	-1
24	0xff	-1
25	0xff	-1
26	0x01	1
27	0x01	1
28	0xff	-1
29	0x01	1
30	0xff	-1
31	0xff	-1
32	0x01	1
33	0x01	1
34	0xff	-1
35	0xff	-1
36	0x01	1
37	0xff	-1
38	0x01	1
39	0x01	1
40	0xff	-1
41	0xff	-1
42	0xff	-1
43	0xff	-1
44	0x01	1
45	0xff	-1
46	0xff	-1
47	0x01	1
48	0xff	-1
49	0xff	-1
50	0xff	-1
51	0xff	-1
52	0xff	-1
53	0x01	1
54	0xff	-1
55	0x01	1
56	0xff	-1
57	0xff	-1
58	0x01	1
59	0x01	1
60	0x01	1
61	0x01	1
62	0xff	-1
63	0xff	-1
64	0x01	1
65	0xff	-1
66	0x01	1
67	0xff	-1
68	0xff	-1
69	0xff	-1
70	0x01	1
71	0x01	1
72	0x01	1
73	0x01	1
74	0x01	1
75	0x01	1
76	0xff	-1
77	0xff	-1
78	0x01	1
79	0x01	1
80	0x01	1
81	0xff	-1
82	0x01	1
83	0xff	-1
84	0xff	-1
85	0x01	1
86	0x01	1
87	0xff	-1
88	0xff	-1
89	0x01	1
90	0xff	-1
91	0xff	-1
92	0x01	1
93	0xff	-1
94	0xff	-1
95	0xff	-1
96	0xff	-1
97	0x01	1
98	0xff	-1
99	0xff	-1
100	0x01	1
101	0xff	-1
102	0xff	-1
103	0xff	-1
104	0x01	1
105	0xff	-1
106	0x01	1
107	0xff	-1
108	0x01	1
109	0xff	-1
110	0xff	-1
111	0x01	1
112	0x01	1
113	0x01	1
114	0x01	1
115	0xff	-1
116	0xff	-1
117	0xff	-1
118	0xff	-1
119	0x01	1
120	0xff	-1
121	0xff	-1
122	0xff	-1
123	0x01	1
124	0x01	1
125	0x01	1
126	0x01	1
127	0x01	1
128	0x01	1
129	0xff	-1
130	0xff	-1
131	0x01	1
132	0x01	1
133	0x01	1
134	0xff	-1
135	0x01	1
136	0xff	-1
137	0xff	-1
138	0x01	1
139	0x01	1
140	0xff	-1
141	0xff	-1
142	0x01	1
143	0xff	-1
144	0xff	-1
145	0x01	1
146	0xff	-1
147	0xff	-1
148	0xff	-1
149	0xff	-1
150	0x01	1
151	0xff	-1
152	0xff	-1
153	0x01	1
154	0xff	-1
155	0xff	-1
156	0xff	-1
157	0x01	1
158	0xff	-1
159	0x01	1
160	0xff	-1
161	0x01	1
162	0xff	-1
163	0xff	-1
164	0x01	1
165	0x01	1
166	0x01	1
167	0x01	1
168	0xff	-1
169	0xff	-1
170	0xff	-1
171	0xff	-1
172	0x01	1
173	0xff	-1
174	0xff	-1
175	0xff	-1
176	0x01	1
177	0x01	1
178	0x01	1
179	0x01	1
180	0x01	1
181	0x01	1
182	0x01	1
183	0xff	-1
184	0x01	1
185	0x01	1
186	0x01	1
187	0xff	-1
188	0x01	1
189	0xff	-1
190	0xff	-1
191	0x01	1
192	0x01	1
193	0xff	-1
194	0xff	-1
195	0xff	-1
196	0xff	-1
197	0xff	-1
198	0x01	1
199	0xff	-1
200	0xff	-1
201	0xff	-1
202	0xff	-1
203	0x01	1
204	0xff	-1
205	0xff	-1
206	0x01	1
207	0xff	-1
208	0xff	-1
209	0xff	-1
210	0x01	1
211	0xff	-1
212	0x01	1
213	0xff	-1
214	0x01	1
215	0xff	-1
216	0xff	-1
217	0x01	1
218	0x01	1
219	0x01	1
220	0x01	1
221	0x01	1
222	0xff	-1
223	0xff	-1
224	0xff	-1
225	0x01	1
226	0xff	-1
227	0xff	-1
228	0xff	-1
229	0x01	1
230	0x01	1
231	0x01	1
232	0x01	1
233	0x01	1
234	0xff	-1
235	0x01	1
236	0xff	-1
237	0x01	1
238	0x01	1
239	0x01	1
240	0xff	-1
241	0x01	1
242	0xff	-1
243	0xff	-1
244	0x01	1
245	0x01	1
246	0xff	-1
247	0xff	-1
248	0xff	-1
249	0xff	-1
250	0xff	-1
251	0x01	1
252	0xff	-1
253	0xff	-1
254	0xff	-1
255	0xff	-1
